capstone_mini_gpt_training/mini_gpt_pytorch.pt (torch, 429831 bytes, 29 tensors)

token_embedding.weight f4 [20, 64]
00000000: c0b9 0a3c b171 ab3c 22e1 84bb 1a7a 3bbc
00000010: a016 83bc bb14 c8bc 9839 f6bc 12de bcbc
00000020: 0c9a bcbc cf09 b73c 451d 1c3c e9a5 71bb
00000030: d724 403d 8231 dcbb 080c 563c 6e98 823b
00000040: 5fad ab3c 21bd ef3c 564a 313c 30d6 acbc
00000050: 2f71 b13b 9bcc a1bc 8501 c63c ed5e a73c
00000060: d300 c33b 3ec9 8bb9 733d c338 a885 96bc
00000070: 0ce4 97bb 6982 f73b fb56 42bc a1fd 9ebc
00000080: 0f78 c9bb bf42 b13c 4177 063c 6362 313b
00000090: d79f d63a 1224 f0bc 2f97 873c 30b6 cabb
000000a0: dc2c 9cbc 8182 073c 4c89 21bc 313a 24bd
000000b0: bd55 383c 31dd e9bc 7941 04bc d6a6 f03c
000000c0: 7589 e2bc 1326 ecbc 5241 093d 91a5 9dbc
000000d0: b7b7 f83b bce1 2cbb 5576 323c d7eb 1ebc
000000e0: 8afe 0e3c f399 153d fd5c bd3c 6332 7c3c
000000f0: 02cc e4bc 5031 5fbc 776d 9b3b 6e6f 033d
00000100: e562 d8bc 8f80 6e3c 5b1e 35bc fd26 3c3b
00000110: cb56 0b3d 73ff 663c bde5 c2bc a48c 123c
00000120: b897 10bc feaf 543d 453c da3c 6154 40bc
00000130: bc3e d23c 1084 253b aac9 7cbc 4e8e c43c
00000140: 4f6e 683c fe71 c4bc eb60 ccbc 36f4 29bc
00000150: dffe 00bc 2ba7 273a caf2 de3b cb1c 1dbc
00000160: c3e8 efbc a58b c93b 3b04 033c 8685 473d
00000170: ce3f 76bd 472e 253c 46a0 3c3b 6890 e93c
00000180: 973e 83bc 77a9 24bc 8964 2ebc 39cd 903b
00000190: 35da d43c 923e a1ba b57d b5bc 72d2 68bc
000001a0: 289c 883b 4e5c b73c ba0a 9d3c cf4f d1bb
000001b0: 112b 28bc 351a 7aba 48e5 3cbc d365 8abb
000001c0: 4c27 d53b 80ed 373c a1c8 18bc 4866 95bb
000001d0: 288a 3dbc 3d89 bfbb 90f5 94bc 422c aabb
000001e0: 3e79 0c3d 89f2 8cbb 9dc2 013c 363f c43c
000001f0: d644 193b af07 403c 547f 3c3d 8295 463c
00000200: 5262 a33c b0fc ddbc 6c18 5c3d 2146 edbd
00000210: f0b4 53bd 5e60 4abd 49c4 8cbc 210f 853c
00000220: 025c 723d 4b2d dcbd e14e f1bc faf5 b4bd
00000230: 6558 5b3e 3b03 553d 2d29 483d 27f3 923d
00000240: c9f9 203c 130a 813d 8f95 1b3d 0f43 273d
00000250: 9154 d6bc 001f de3d 2c73 c13d f923 40bd
00000260: 63db 813d 667a cf3c bf19 163d a6cd 553d
00000270: 2948 263d c240 9ebc 641e 513c 07f7 433d
00000280: 0d0c 133d 8c1b 9b3d e62f b2bd ca1a 4b3d
00000290: 2d8b 103d e1d7 0b3d f860 0abe 7525 2b3d
000002a0: 9dda 26bd b73b 17bd 0c73 89bb 80a6 81bc
000002b0: 7f5b 383d bcf1 8bbd 7269 04bd 2d04 2c3d
000002c0: 501e f7bc 18be dbbd 1380 4ebd f194 d33d
000002d0: 19c4 82bc 539c c73c cd2c 373d bddf 043d
000002e0: 92e5 b9bd 3c59 673c ec18 af3d 8cbd a3bd
000002f0: 772a 32bd f84e 393b 0309 24bd c239 93bd
00000300: 9cdf 42bc 0bd7 d93d d518 3abc 0ff3 58bc
00000310: 51c1 c13c 338d 38bb daff bc3c c1ea 4bbc
00000320: e15e 42bd 5178 26bd f8ae 4b3d 499c b93c
00000330: 4914 05be 5e71 28bd 2a52 693c e6dc be3d
00000340: c8a5 9bbc c326 4fbd 318d c03d 8aa0 c1bd
00000350: 5139 1b3c 951d d13c c096 febc 0954 833d
00000360: 3904 fbba 0973 e43c 8e7a 313d d785 64bd
00000370: a594 3e3e bd65 14be 9bca c7bc 8bc6 f8bc
00000380: 4eb1 0f3d 9f53 653d e15d b3bd 4126 073d
00000390: 8f34 c0bc a9dc 6ebd 2c1c 973c 0299 8cbd
000003a0: 4618 173d 54d9 d33c fdea ec3c d680 29bd
000003b0: c28d 9abd d4d3 54bb 155d 2a3d 9adf 103d
000003c0: 66df 163d 07f9 333a 04a3 363b 7d4e bd3c
000003d0: 869c 593d 69a9 ed3b 3311 dbbc f45c 3ebd
000003e0: fa33 943d 8b52 053d 62be 0abd 4395 a03d
000003f0: 83d1 893d 28e8 8cbd eb86 c2bc ab41 91bc
0.008467138 0.020928236 -0.0040551582 -0.0114426855 -0.016002 -0.024423948 -0.03005676 -0.02305511
-0.023022674 0.022343544 0.009528463 -0.0036872572 0.046910133 -0.006719769 0.013064392 0.003985456
0.020956693 0.029264988 0.010820946 -0.021098226 0.005415104 -0.019750884 0.024170646 0.020431006
0.005951026 -0.00026662083 9.3097704e-05 -0.01837428 -0.0046353396 0.007553388 -0.011861558 -0.019408049
-0.0061483453 0.021638272 0.008207143 0.00270667 0.001637454 -0.029314075 0.016551582 -0.006186269
-0.01906436 0.008270861 -0.009859394 -0.04009456 0.01125091 -0.028547855 -0.0080722505 0.029376429
-0.027653435 -0.028826749 0.03350956 -0.019243987 0.00759026 -0.0026379665 0.01089247 -0.009699783
0.008727679 0.03652377 0.02311563 0.0153928725 -0.02792931 -0.013622597 0.004743274 0.03208869
-0.026414344 0.014557018 -0.011054601 0.0028709762 0.03401832 0.01409899 -0.023791188 0.008944664
-0.008825235 0.05192565 0.026640067 -0.0117388675 0.02566468 0.0025255717 -0.01542894 0.023993637
0.014186456 -0.023980137 -0.024948558 -0.010373166 -0.007873266 0.00063954544 0.006803845 -0.009589384
-0.029285794 0.00615068 0.007996614 0.048711322 -0.060119443 0.010081834 0.0028782054 0.028511241
-0.016021056 -0.010050169 -0.010644087 0.0044189957 0.025982955 -0.0012301973 -0.022154668 -0.01421033
0.004169006 0.022382881 0.019170154 -0.0063876878 -0.010264174 -0.00095406483 -0.011529274 -0.004223564
0.0065049287 0.011226058 -0.009325177 -0.004559312 -0.011568584 -0.0058452175 -0.0181835 -0.005193264
0.034295313 -0.0043013734 0.007919935 0.023955923 0.0023386977 0.011720582 0.046019867 0.012120606
0.019944344 -0.02709803 0.053734228 -0.11585642 -0.051686227 -0.04940831 -0.01718344 0.016242566
0.059169777 -0.107508264 -0.029456558 -0.08835979 0.21420439 0.052005034 0.048867393 0.07175284
0.009825178 0.0630075 0.037984427 0.040835436 -0.026163371 0.108457565 0.094457954 -0.046909306
0.06340673 0.025326919 0.036645647 0.052198075 0.04059616 -0.019317988 0.012763593 0.047843006
0.035900164 0.075736135 -0.08700542 0.049586095 0.03528898 0.034141425 -0.13513553 0.04178377
-0.04073583 -0.036922183 -0.004194623 -0.015826464 0.045009132 -0.068332165 -0.032327123 0.04199617
-0.030165821 -0.10729617 -0.05041511 0.10331143 -0.015962647 0.024366533 0.04472046 0.032439936
-0.0907699 0.014120396 0.08549675 -0.079951376 -0.04349753 0.0028275829 -0.040047657 -0.07188751
-0.011894133 0.10636719 -0.0113584595 -0.013241543 0.02365175 -0.0028160333 0.023071218 -0.012446106
-0.047453765 -0.040642086 0.04972741 0.02265753 -0.1299602 -0.04112374 0.014240781 0.09319477
-0.01899995 -0.050574075 0.0940193 -0.094544485 0.0094741145 0.025526801 -0.031077743 0.06412513
-0.0019151039 0.027886884 0.043329768 -0.055791702 0.18611391 -0.14491935 -0.024388602 -0.03036811
0.0350812 0.05598795 -0.0875814 0.032995466 -0.023462562 -0.058315907 0.01844605 -0.068651214
0.036888383 0.025860466 0.028920645 -0.041382633 -0.075465694 -0.0032474892 0.041592676 0.035369493
0.036834143 0.0006865416 0.002786816 0.023108715 0.053127788 0.0072528613 -0.0267416 -0.046475366
0.07236476 0.032549422 -0.03387297 0.078409694 0.06729414 -0.06880218 -0.023745975 -0.017731508

position_embedding.weight f4 [32, 64]
00000000: 596f b5bc 02f9 3e3d 49f6 86bd 315f 9cbb
00000010: 2360 ee3b 36c3 983c 5c49 7b3d bdf0 80bc
00000020: 21c3 5dbd 7789 153b 6fac 0cbe a858 b4bd
00000030: 51c3 58ba b64a a23d 4a60 b73c c486 8d3d
00000040: aeea 9b3c 2c25 d0bc b9ea 043d 55e9 243c
00000050: 1d5e 72bd 32f9 33bd 85e4 5dbd 46de 0f3c
00000060: cdff 5f3a 0000 31bd c784 8fbd bcb5 723c
00000070: f36f 82bc 4a43 a9bc a5a6 383d 9c50 973d
00000080: 1408 9dbd 0885 8f3d be75 6ebd 2c6b b13c
00000090: 049c 813d c6fb 993b b777 053d 4d0a 113c
000000a0: da48 57bd c880 573d 7954 92bc 5cdc 0fbc
000000b0: 9fef 4e3d 000f e03c 9d08 4cbd d67f 9335
000000c0: 3aa2 65bd 83f2 ebbc b38b 3e3d 010a 44bc
000000d0: fc3a a93d 2f8c 85bc 5cad c43a dcca 5bbd
000000e0: ca97 3fbd 51d5 493d f725 a93b 2c96 873b
000000f0: c66d 57bd 0802 b73c 39cb b33d 26d1 403d
00000100: ed7c 9a3d 5f18 d63c af3d c2bd 99a4 5d3c
00000110: f4de 57bc 259a abbb 6afa ad3d d602 333d
00000120: cb0b 723c f6eb 953d f4d0 7fbc 0147 c2bc
00000130: dc89 91bd 2129 a63c 905e 3dbd 6292 773d
00000140: 21b8 89bd 6299 81bc eb16 55bc 35b0 ac3b
00000150: 6c1d 833c ce2f 59bd 96d3 8ebd 4aa1 773d
00000160: 1ec4 08bd 9d06 c1bd 0d54 dd3c 6350 733c
00000170: 5ec5 0abd 093c 8fbd a13f fe3b bfa2 6b3d
00000180: fca6 8d3c 11a9 383d 13be 9fbc 83d8 9fbd
00000190: 3422 d23b e0c1 11bd 85f3 413d 0935 7fbd
000001a0: 0b65 e43d b339 d3bd 712e 94bd 5f79 a3bc
000001b0: 26b4 1d3d 03fe a83b 07f4 6cbc 3bce ae3d
000001c0: 17c3 793d 4000 ceba bb24 79bd 117e 8dbd
000001d0: 778b b9bc 318f 20bc 4b7a 9a3d cac5 09bb
000001e0: 808e 7e3d b87d f6bc c95a 0b3c c975 8e3d
000001f0: fb28 813c e07c e339 a32f d8bd 0af4 b2b9
00000200: e2a9 4abd 7330 64bd 625d a73c 35ab ad3d
00000210: f717 04bd 2c60 403d ba90 c5bd adf7 c5bc
00000220: 2466 a03d 709d 523d b2e0 0f3e 8e77 6cbc
00000230: 5501 4abc dc1c 023c 5464 14bd fba3 08bc
00000240: 6e9f a23d 40a1 2b3c 077d 2fbd 4e4f b1bc
00000250: 4af7 97bd 241c 0c3d 9d5b 143c 6d46 0abe
00000260: 7805 b4bc af44 4bbd 3b1f 88bc 81fc db3c
00000270: b1e8 cdbc 2be0 1ebd 5a51 d13d ab0e 10bd
00000280: c08c 983c b0e0 3a3d 98a1 e83b b97b 28bd
00000290: bfe4 1cbd 347f 063d c986 2abd b2dd 2e3d
000002a0: c7a7 d13d 1b48 2dbd 58af dd3d 6ae4 a6bd
000002b0: adcb 613d b60c c93d 31ac 12bd 9e30 d6bc
000002c0: b5bc eebb 812b 9d3d b203 733d 94ad 65bd
000002d0: 7073 babb 9a11 97bd e65d bcbd 7273 aebd
000002e0: 9d28 5c3d ffd5 70bc 52b4 993d 6f41 013d
000002f0: d254 3c3c 79f7 0bbd dae6 debd b96d 12be
00000300: a1ee 29be 7a0d 97bd a4fb a9bd e415 a5bc
00000310: f7e9 cd3d b66f cb3c 58f8 ad3d e746 aa3b
00000320: 4c15 523c 0ef3 253c 7752 9ebc d8b2 76bd
00000330: 03f4 21bc e824 76bb 00dd 8bbd 7d4a fcbc
00000340: 4ddb f13c f505 e7bc 04a5 463b e115 8d3d
00000350: 84c3 babc 3bef 133a 22c2 08bd 1437 2cbd
00000360: 0a46 903a f4f8 a43b 3450 6abc e1c5 063d
00000370: b4c7 8dbd dc3e 3e3d fb82 863d 7d47 7a3d
00000380: 17f8 7cbb 0cbd 1bbe 7de6 3b3d bcb9 d0bb
00000390: e7f7 563c 0238 933d 2827 88ba 01db d73c
000003a0: 7c5b 2cbc 9926 e43c 9224 cabd 737a 303d
000003b0: 301e 34bd 9ab4 aabd 414d 11bd e42c 39bd
000003c0: ea10 f63c 541e 20bd 1106 2b3d 4bec 8f3c
000003d0: e6c2 bc3c 8c3f 183d e37d 27bc 11af d43c
000003e0: c39f 29bd 4237 88bd e3ec 9dbb 512b 72bc
000003f0: 89d6 073d 04eb 113d 3197 1f3e 3729 9a3d
-0.022147821 0.04662419 -0.06589944 -0.00477209 0.007274644 0.018647771 0.061349258 -0.015739793
-0.054141168 0.002281753 -0.13737653 -0.08805972 -0.00082688505 0.07924406 0.022384781 0.0691047
0.019032802 -0.02540835 0.03245041 0.010065396 -0.059171785 -0.043938823 -0.05417301 0.008781021
0.0008544892 -0.04321289 -0.07007747 0.014813837 -0.015922522 -0.020661969 0.0450808 0.07388422
-0.076675564 0.070077956 -0.058217756 0.021657549 0.06328586 0.004699203 0.032584872 0.008852554
-0.05255971 0.05261305 -0.017862545 -0.008780565 0.05052149 0.027350903 -0.0498129 1.0989559e-06
-0.056062914 -0.028802162 0.046519946 -0.011965276 0.082632035 -0.016302196 0.0015005278 -0.05366026
-0.046775617 0.0492757 0.0051619965 0.004137775 -0.052594922 0.022339836 0.08778996 0.04707446
0.07543359 0.026134668 -0.094844215 0.013528013 -0.013175715 -0.0052368813 0.08495028 0.043703876
0.0147733195 0.073203966 -0.015613783 -0.023715498 -0.07106373 0.020283284 -0.04623276 0.060442336
-0.06724573 -0.015820209 -0.013005952 0.005270029 0.01600524 -0.053024106 -0.069739506 0.06045655
-0.033390157 -0.094250895 0.027017618 0.014850709 -0.03387963 -0.06993873 0.00775905 0.057528254
0.017291538 0.04508311 -0.019499814 -0.07804968 0.0064127687 -0.035585284 0.04735138 -0.062306438
0.11152085 -0.1031374 -0.072354205 -0.019955335 0.03850188 0.0051572337 -0.0144624775 0.08535429
0.060977068 -0.0015716627 -0.060826045 -0.06908811 -0.02264951 -0.0097997645 0.07542857 -0.0021022432
0.062147617 -0.030089244 0.008505532 0.069560595 0.015766611 0.00043389853 -0.10555961 -0.0003413263
-0.04947842 -0.055710267 0.02043027 0.08479921 -0.032249417 0.046966717 -0.09646745 -0.024165953
0.07831982 0.051419675 0.14050558 -0.014432801 -0.012329419 0.007941451 -0.036228493 -0.008339877
0.07940565 0.010475457 -0.042843845 -0.02164426 -0.074202135 0.034206524 0.009055045 -0.13503428
-0.021975264 -0.04962605 -0.016616454 0.026853802 -0.02513537 -0.038788002 0.10220595 -0.03517024
0.018621802 0.045624435 0.0070993416 -0.041133616 -0.038304087 0.032836154 -0.041632447 0.042691894
0.10237079 -0.042305093 0.1082446 -0.08149035 0.05512588 0.098168775 -0.035808746 -0.02614623
-0.007285679 0.07674313 0.059329696 -0.05607374 -0.0056900308 -0.07376404 -0.09197597 -0.08518113
0.05374967 -0.014699458 0.075050965 0.031556543 0.011494832 -0.034171555 -0.10883875 -0.14299668
-0.16594936 -0.07375617 -0.0829995 -0.02015204 0.10054391 0.024833541 0.084946334 0.0051964405
0.01282246 0.01012875 -0.019326432 -0.060229152 -0.009884837 -0.003755862 -0.06829262 -0.030797238
0.029523516 -0.028201083 0.003031076 0.06888939 -0.022798307 0.0005643253 -0.033388264 -0.042044714
0.0011007201 0.0050345603 -0.0143013485 0.032903556 -0.06922856 0.046446666 0.06567951 0.061103333
-0.0038600022 -0.15208834 0.045874108 -0.0063697975 0.013120628 0.07188417 -0.0010387646 0.026349546
-0.010519858 0.027850436 -0.098702565 0.043085527 -0.0439741 -0.08335228 -0.035474066 -0.045208827
0.030037362 -0.039091423 0.041753832 0.017568728 0.023042154 0.037169978 -0.010222885 0.025962384
-0.041412126 -0.066511646 -0.004819499 -0.014780835 0.03316358 0.03562452 0.15585019 0.07527392

blocks.0.attention.W_q.weight f4 [64, 64]
00000000: 0db6 f4bd 9c0d bcbc db35 0f3d 996c 69bd
00000010: 7704 30bc b908 ca3d 60c5 07be 85c3 cb3d
00000020: cfe1 bdbb b1e6 5dbc 5774 f73d 12c8 893d
00000030: fdb3 cdbc 2742 16be 73cb 2dbc 7362 03bd
00000040: 1f3d 0d3d c772 c1bd 2d60 79bb d8f5 2fbe
00000050: 01d5 bdbb 1196 193d 24e2 1e3e 7594 073d
00000060: ccbd 313e 9abb e83c e243 c03c 302b 1e3d
00000070: 4d7c e03d 3467 79bc 8354 5ebe f120 a83c
00000080: cf5e bf3d 663b dd3b 6f82 4e3d 8590 1f3d
00000090: 5d15 28bd 2b56 c0bb 2406 593d 6242 86bd
000000a0: 049b 363d abc9 43bd 05d3 db3d 680e db3d
000000b0: a01f 4fbe bf50 9d3c 654e af3d 4fce a6bd
000000c0: 200e 9fbd 0b33 353e e64c 10bd 1ea4 ae3c
000000d0: 598d 763c 8334 89bb e30d 6c3d 0510 703d
000000e0: 82b3 e7bd bed0 05be f1af f3bd 2196 523d
000000f0: 9023 fe3d 850a d1bb d519 b93d 007f 8dbb
00000100: 8fbf b03d 63c7 e23d d574 8dbd f31f 2cbc
00000110: 3cf6 43bd b962 0e3e fc09 13bd 62ba 2d3e
00000120: 2e1f 393c 4a2a 2fbd 5ebb 0dbe 2d2d f4bd
00000130: 5896 843d 990e efbc 01ad c0bd 1812 75ba
00000140: 672c e13d ad58 a1bd 69ce 863d 4f0a 703c
00000150: 0936 6d3e 85cd 913d 1566 22b8 395a d03c
00000160: 38e8 07bd e8f7 e3bd 5fa8 d2bd 8e91 a73d
00000170: 9b13 fbbc 6a2f c8bd f7a0 df3b c4e6 85bc
00000180: ebb6 dabd 5c5f 13be 11d7 a1bd 48a1 1bbc
00000190: cb44 31be 611b 93bc 7d8a da3d ae9f a8ba
000001a0: 9ea4 a23c 20d0 1d3d ada7 85bd 32f8 c6bd
000001b0: 8495 4c3e 5794 a8ba 82d5 8abb 35fd 5a3c
000001c0: 1f69 8a3d b330 3cbe 04c2 3f3e 6dcc f4bc
000001d0: 1c5b 173e 03dd 753a 8806 83bd 241e 9dbd
000001e0: 48c8 3d3d 0850 763c df07 c23d 96f1 313d
000001f0: cbfd fbbc 95eb aebd 82bc 0bbe abe3 e63d
00000200: 18f8 adbd 274a fabc 05e7 533d af85 8c3d
00000210: 4b16 b13d 3018 83be 3fbf 19bd e7ad 5ebd
00000220: 2120 5abd b67b b8bb efa4 19bd b9aa cabd
00000230: 1833 833d b471 fe3d 40b0 5a3d 8075 78bd
00000240: b50d 533d 5470 b63d 3b39 943d 5c6f 1f3e
00000250: ea1c f6bd 4c34 febd 9f34 a53c 1b30 fd3d
00000260: 63aa 17bd 9371 833c 982d 5dbd 919c 193e
00000270: 5146 dcbd e4a9 6f3c 7cb5 883d aabe ef3d
00000280: 47d6 a03c e898 0f3b 2944 8fbd 247a 7dbd
00000290: e27b c0bc 240b 893d da0b 473c 7412 a03c
000002a0: 83af 16bd 1f69 a6bc 99b1 debc 6c55 6e3d
000002b0: 7cbb 99bb 5240 efbd c57c 2abe a44c 43bd
000002c0: 09a8 b43d dcbb 41be c4bd 38bd a149 973d
000002d0: b699 7abd 57e2 293e 2a59 dd3b 1327 813d
000002e0: 7e36 253c 132f 1e3e 80e2 353d 5de7 43be
000002f0: 47e4 4dbe b822 1dba dac3 f73d 4529 c0bd
00000300: 21b5 6e3d 9d48 1d3d a3f5 d8bc 9014 f93d
00000310: 09ac fdbc 4872 1abd 11ca 203d 5a7b 24bd
00000320: da2e 47bd d9c9 4d3d 22d2 c4bd 6dbb c6bb
00000330: 87c3 23bd 740e aebc 1bb9 babc 428c 24bd
00000340: 7fc7 9e3c 2e0d 4fbd c8ab 9d3d f43e 17bb
00000350: a7a6 cf3d ec66 f5bc 233c 383c 14b3 cb3c
00000360: a153 2f3d 7a00 c5ba b0e0 1b3c b98f 79bc
00000370: 185a 3d3d 9a09 653c df60 163b d9d1 2cbd
00000380: e74e 75bc 255a 61bd f8b6 2439 5431 623d
00000390: e905 563b 91ad 26bd a8bf b23d af3c 673c
000003a0: f2cd 96bd 4bf5 933d ae1d 0ebd 5dd2 8b3c
000003b0: 8a8a 7abd 8890 bd3c bb2b 30bd 90e2 03bc
000003c0: ced4 24bd 1d17 19bd 0a17 583d 8b65 c73c
000003d0: 9b31 da3d 2e6b a63c 7e1b 91bd e09c 9cbd
000003e0: 9075 043e 398c 853d c1e7 8fbc ff51 aa3c
000003f0: 4d95 c8bd d16f f8bc bae4 0bbe 698b 9dbc
-0.11948786 -0.022955708 0.03496347 -0.056988332 -0.010743252 0.09864945 -0.13258886 0.09949402
-0.0057947407 -0.013543771 0.12082737 0.067276135 -0.02511024 -0.14673673 -0.010607588 -0.03207631
0.034482118 -0.0944572 -0.003805171 -0.17183626 -0.0057932143 0.03749663 0.15515953 0.033100564
0.17357558 0.028409768 0.023469869 0.038615406 0.109612085 -0.015222359 -0.21711926 0.02052352
0.09344255 0.0067514656 0.05041736 0.038956184 -0.041036 -0.005869647 0.05298437 -0.0655563
0.04458143 -0.047799747 0.10733608 0.10696107 -0.20226908 0.019203542 0.085598744 -0.08144819
-0.07766366 0.17695253 -0.035229586 0.021318492 0.015048348 -0.004187168 0.05763043 0.058609027
-0.11313535 -0.1306791 -0.118987925 0.051412705 0.12409127 -0.006379428 0.0903813 -0.004318118
0.08630287 0.11073186 -0.069070496 -0.010505664 -0.04784225 0.13904847 -0.035898194 0.1696563
0.011298938 -0.04276494 -0.13841006 -0.11922679 0.06473988 -0.029181765 -0.09407998 -0.00093487045
0.10994797 -0.07878242 0.06582338 0.014650895 0.23165144 0.07119278 -3.871888e-05 0.025433647
-0.033180445 -0.11131269 -0.102860205 0.08182059 -0.030648997 -0.097746685 0.0068246084 -0.01634539
-0.1067942 -0.14391845 -0.07902349 -0.009498902 -0.17311399 -0.017957391 0.10670946 -0.0012864971
0.019853886 0.03852856 -0.06526122 -0.09715308 0.1997891 -0.0012861592 -0.004236878 0.013366033
0.067583315 -0.18377952 0.18726355 -0.029882634 0.14780849 0.00093789416 -0.0639773 -0.076717645
0.04633358 0.015033729 0.094741575 0.043443285 -0.030760666 -0.085410275 -0.13646129 0.11273893
-0.08494586 -0.030552937 0.05173399 0.068614356 0.0864683 -0.2560439 -0.037535902 -0.054365065
-0.053253297 -0.005629982 -0.03751081 -0.09895844 0.0640623 0.12424031 0.05339074 -0.06065893
0.051526744 0.08908144 0.07237478 0.15569824 -0.12017234 -0.124123186 0.020166693 0.12362691
-0.037027728 0.016045367 -0.05399856 0.15001132 -0.10755599 0.014627907 0.066752404 0.11706288
0.019633425 0.0021911208 -0.069954224 -0.06188406 -0.023496572 0.06691578 0.012148822 0.01954005
-0.036788475 -0.020313798 -0.027184295 0.058186933 -0.0046915393 -0.1168219 -0.16649158 -0.047680512
0.08821113 -0.18919319 -0.04510285 0.073870905 -0.061181746 0.16590248 0.006755014 0.06306281
0.010083793 0.15447645 0.04440546 -0.19131227 -0.20106612 -0.0005994248 0.120979026 -0.093828715
0.058278207 0.038399328 -0.026484316 0.12162125 -0.030965822 -0.037706643 0.039255206 -0.0401567
-0.048628666 0.050241325 -0.09610392 -0.0060648234 -0.03998139 -0.021247126 -0.022793343 -0.040172823
0.019382237 -0.05054968 0.0769878 -0.0023078294 0.10139208 -0.029956304 0.011244806 0.024865665
0.042804364 -0.0015030049 0.009514019 -0.01523202 0.0462285 0.01397934 0.0022945923 -0.042192314
-0.014972425 -0.05501761 0.0001570842 0.055222824 0.0032657331 -0.04069287 0.08727962 0.014113589
-0.073635 0.0722452 -0.034696274 0.017068082 -0.061167277 0.023140207 -0.043010455 -0.008049622
-0.04024201 -0.03737556 0.052756347 0.024340412 0.10653993 0.02031478 -0.07085322 -0.07647109
0.12935472 0.06520886 -0.017566564 0.020791052 -0.09794102 -0.030326756 -0.13661471 -0.019231515

blocks.0.attention.W_k.weight f4 [64, 64]
00000000: 0cba a8bc ab4d 313b 8a95 edbd 6e13 e63c
00000010: f58a 0bbe 2ff6 c1bc acae 3f3e d4b6 543c
00000020: dffa 0fbe 3a2b 3f3e aebc e7bc fad5 70bc
00000030: db68 1ebe 7b33 b0bd 99bd 12bc db45 e23d
00000040: 5b84 a63d 6f3a a23d 0202 9ebd 4eef f8bc
00000050: 6805 91bc cf69 063e fdb7 443c 18d9 39bd
00000060: 6694 3dbe 62ca a0bd 2928 9abd ac8d 2a3d
00000070: b78c 23bd 03f7 023c 6d2a a33c fbcd 703c
00000080: 1751 4dbe b1df ca3d b3f6 803d b5e4 b8bd
00000090: dccc c43d 3b0f d83c dec3 00bd 2ae3 1d3d
000000a0: f41e 7a3d bcab 04bd a03e 3abd 210c 093e
000000b0: 087b a43d 53b4 ab3d 0b0e 10bd 010d edbc
000000c0: b976 8d3d ae35 dd3d 0ab8 9cbd da66 d8bc
000000d0: df83 d0b7 c0ec 30bd c80d a53d 1829 e3bc
000000e0: 35f1 8cbd 5ae9 2b3d 3c91 303e 5103 01be
000000f0: d67c 29bd 04ba c83c 3c7d abbc f3fa 0b3e
00000100: bef7 86bd d4c7 103e 9e67 993d 503a a3bd
00000110: e1d9 093d eb64 4fbd 5ec7 d3bd cf02 aa3d
00000120: 3515 d33d 30c4 dbbd 6121 663d 98b7 01bd
00000130: 2d9c 3d3d efef 393d 5b1a c33d 86ea f73c
00000140: ab56 6abb e11f 3bbd d547 ab3d 6252 9e3a
00000150: d960 a43c 5c47 003e 81ca 203e 1e0e ce3d
00000160: f127 313e 3078 60bd 57df 803d 5d17 973d
00000170: d859 613d 3c7e 13be 375d 4ebe b848 cd3b
00000180: 4a7e 353e 345f b5bc 15f4 15be 00d0 8cba
00000190: bdc4 eabd cf6e 4cbd c6c4 3dbd d874 a7bd
000001a0: e936 da3d a6b4 b7bd 31db 0a3e 931c 0bbd
000001b0: e6bd f4bd f6f1 95bd f5f1 9fbd b971 0cbd
000001c0: 8b0c c6bb 1757 b8bd 84c7 43be d2e6 453d
000001d0: 1c2f 9bbc 4bbc 0b3e 123d 353e 7e06 a4bd
000001e0: 973a e33c e221 753c 81d6 8e3d c6b0 fcbd
000001f0: 9b1b 57bd 038c d7bd d45a 5b3a f948 d2bd
00000200: f191 1e3e 291a b0bd 3f2f f23d 5dfb 93bd
00000210: 1fcf cc3d d0bf 15bc c220 a03c 499d 8e3d
00000220: a131 f33c d6ec 4abe e6be 943d c43c 02bd
00000230: 99ee 773d 050c 473c 0c4a 09bc 0f0f 07bd
00000240: 8b99 b9bc 70e3 f43c dbb1 abbd a230 01be
00000250: e1d6 713d 1b9a 95bd c67d 323d 0dff 0ebc
00000260: 55af 9dbd cc38 e63d f37d 4b3b 2d1b f63c
00000270: 9dab 003e 9bdf e2bc 900c 07bd 9081 97bd
00000280: 5006 083e 2337 b6bc fbf9 96bd 6cbc 83bc
00000290: e2d0 dfbd 55dc 893c 5a66 f1bd 947e 6cbd
000002a0: d42e 3ebe 1b85 89bc effe 7a3d 72ab 4abe
000002b0: c20b 85bd 59ec 053c 723e 963d 9e07 643d
000002c0: 4322 8a3d a694 353e 2630 22bd bc0e 89bc
000002d0: 8083 a83c 89b4 7f3c 757c 78be 87a9 f83d
000002e0: 9177 713d 6caf 40bd e122 bbbd 18a0 3d3e
000002f0: c4cd 043e 7d27 643d 8a2e 1ebe 35a1 573d
00000300: f025 dcbd 7910 abba a30b c13b 9595 b43c
00000310: 5506 633d 3c15 6b3c 7944 833d 7a73 b8bc
00000320: 0d04 1e3d 383d a2bd 5125 6ebc e243 163c
00000330: be8f 573d b61b 9d3d 877a 3e3d bceb 003d
00000340: ce71 32bd 58f0 1bbd 14ff a13d 9cc8 89bc
00000350: 37b6 983c d267 243d 271a 363d 4370 b0bd
00000360: ae6f ae3d 8e67 de3d 8054 fc3c a471 7f3d
00000370: 99d6 873d fa3c d7bd a52c 6dbd deb8 28bd
00000380: 1526 ca3d a169 86bd 509c bbbc 8816 7e3d
00000390: dad9 9abd 46a5 2cbd 820e 87bd 7aba 8ebc
000003a0: 3961 363d 6cac a83c 1d0b 6d3d 8f2c 3fbd
000003b0: 0bf2 6cbd 4845 62bc a7d3 7bbb 2ed6 833d
000003c0: fdc6 8cbd a08b 28bc cff0 a33d f468 3dbc
000003d0: 7209 553d 81f1 4fbd 301e b3bb 96c3 f9bc
000003e0: 2edf 593b e316 06bd cbae 7dbd 3890 57bc
000003f0: 2be9 6bbc 3f72 b8bd e4ca ac3d 5569 a5bd
-0.020596527 0.002705435 -0.11600788 0.028085437 -0.13627227 -0.02367696 0.18718976 0.012983043
-0.14060543 0.18668833 -0.028288212 -0.0146994535 -0.15469687 -0.08603569 -0.008956336 0.1104848
0.081307136 0.079213016 -0.07715227 -0.030387547 -0.017702773 0.131263 0.012006757 -0.045373052
-0.18513641 -0.078511015 -0.07527191 0.041639015 -0.039929118 0.0079934625 0.019917691 0.014697547
-0.20050465 0.09905947 0.06297054 -0.090279974 0.09609386 0.02637445 -0.031436794 0.03854672
0.061064675 -0.03239034 -0.04546988 0.13383533 0.08031279 0.083840035 -0.035169642 -0.028936865
0.0690741 0.10801254 -0.0765229 -0.026416231 -2.485694e-05 -0.043194532 0.08059269 -0.027729556
-0.06881944 0.04197059 0.17242903 -0.12598921 -0.04137882 0.024502762 -0.02093374 0.13669948
-0.06590222 0.14138728 0.074904665 -0.079701066 0.03365505 -0.050633352 -0.10340761 0.08301317
0.10306779 -0.10730779 0.056184176 -0.03166923 0.04629152 0.045394834 0.09526511 0.030263197
-0.0035757225 -0.0456847 0.0836331 0.0012078995 0.020065712 0.12527221 0.15702249 0.100612864
0.17300393 -0.05480212 0.06292599 0.07377503 0.055017322 -0.14403623 -0.20152746 0.0062647723
0.17723957 -0.022140123 -0.14643891 -0.0010743141 -0.11463306 -0.049910363 -0.046330236 -0.08176583
0.106550045 -0.08970003 0.13560177 -0.033962797 -0.11950283 -0.07321541 -0.078098215 -0.034288142
-0.0060439757 -0.09000986 -0.19119078 0.04831583 -0.018943362 0.13646047 0.17699078 -0.08009051
0.027737899 0.014961692 0.06974507 -0.12338404 -0.05251656 -0.10524752 0.00083677215 -0.10267825
0.1548536 -0.0859874 0.11825418 -0.07225678 0.10000443 -0.00913997 0.01954687 0.069635935
0.02968675 -0.19816908 0.072629735 -0.031796232 0.06053028 0.012148862 -0.008379471 -0.032973345
-0.022656223 0.029893607 -0.083835326 -0.12616208 0.059042815 -0.07304784 0.04357698 -0.008727801
-0.076994576 0.11241302 0.0031050413 0.030042255 0.12565465 -0.027694514 -0.032970965 -0.07397759
0.13283658 -0.022243088 -0.07371899 -0.016081057 -0.10928513 0.016828695 -0.117871 -0.0577379
-0.18572551 -0.016787102 0.06127828 -0.19791964 -0.06496383 0.008174025 0.07336129 0.055671327
0.06744816 0.17732486 -0.0395967 -0.016730659 0.020570517 0.015607008 -0.24266227 0.1214171
0.058951918 -0.047042295 -0.09137512 0.18518102 0.12969118 0.05570172 -0.1544744 0.052643973
-0.107494235 -0.0013051174 0.00589128 0.022043983 0.05542596 0.014348324 0.064095445 -0.022516001
0.038578082 -0.07921833 -0.014535264 0.009171458 0.052627318 0.07671301 0.04650357 0.031474814
-0.043565564 -0.038071007 0.079099804 -0.01681929 0.018641574 0.040138073 0.044458535 -0.08615162
0.08517395 0.10859595 0.030802011 0.062364236 0.06632728 -0.10509677 -0.057903904 -0.041191928
0.09870545 -0.06563116 -0.022901684 0.062033206 -0.07561083 -0.042149805 -0.06594564 -0.017422903
0.044526313 0.02059003 0.057871927 -0.046673354 -0.057848018 -0.013810463 -0.0038425715 0.06437336
-0.068738915 -0.010287195 0.08004915 -0.011560667 0.05201096 -0.050767425 -0.005466245 -0.03048877
0.0033244598 -0.03273667 -0.061934274 -0.013156943 -0.014398853 -0.09006166 0.08437136 -0.08076731

blocks.0.attention.W_v.weight f4 [64, 64]
00000000: 4d48 cbbd 90f5 4e3d 7d82 c9bc 0e5c 483c
00000010: b33b 2e3d a29c 4e3d 0264 e43c 8eee ecbb
00000020: 8c17 5e3d 442c 2dbd 458f 0f3c 9bf2 babb
00000030: 216b 603c eafa 243d e0cc d73b 20e6 16bd
00000040: 54ea 0f3d 4fac bdbd 01d5 e73d fa75 353d
00000050: 39d1 b0bd 8c61 afbd f09c 5fbd b10f 9c3c
00000060: 6804 0ebd d9c3 c0bd e19d 89bd bb18 003d
00000070: bf72 07bd e326 f33c a307 9e3d 4aeb 293d
00000080: 397c e0bb ed7f 8fbd 5b15 07bd 228a 80ba
00000090: bcea 0b3d d15c a6bd 4dba 7f3d 9dbc acbc
000000a0: e911 6fbd c7c2 3dbd 967d 043d 655a 3abd
000000b0: 1d20 bd3c cf97 17bd 654f debd 1b0b 07bd
000000c0: 93e2 b53a d135 493d d281 cd3d f915 a73d
000000d0: 59f4 523d 27a5 443c d251 92bd 96e7 5dbd
000000e0: dfc0 6b3d de39 fa3c 7e11 08bd bb8a 843d
000000f0: 6243 3cbd ddb1 8f3d 2deb 2a3e 86e3 8a3d
00000100: da9c 15bd e41e 1dbb d3a5 aebd e357 283d
00000110: 810f ae3c 37e4 d8bb 43ab 64bd e9d3 aabb
00000120: a8ff ea3c d6fa 1f3d 47d0 80bd 14d8 ce3c
00000130: b413 31bd 150b 8a3d a8fa 8fbc 04ca 873d
00000140: fe17 f53b 9b30 09bd e809 1dbd afa1 143d
00000150: c5ab b13d 65fe 303c 1e65 b3bb ef58 ec3d
00000160: 60a5 163d 9e60 fcbc c0bb a8bb ddc9 743d
00000170: 46ac 243c cfbf c23a 724a e53c 2b78 13bd
00000180: 23da cbbc d61a 59bd 50dc 973c 9c06 e9bd
00000190: 475f 9ebb eda9 14bc ae33 193d 2235 f4bc
000001a0: 8a62 fe3d 6630 873c 8c90 8bbd 7172 19bd
000001b0: 0f3b 09bc 3220 d83c e0c6 01be ef39 853b
000001c0: 3d75 223d 0767 cd39 374e 58bd 21a4 ecbd
000001d0: 2c51 3cbc 8aa3 75bc 00c9 66bc fdf7 00bc
000001e0: 2d33 583d a528 81bc 3db4 983d ceb0 0cbd
000001f0: 875b ccbc 8dfe 20bd 86a0 c3bd 9540 8cbd
00000200: 5beb 883c 582c 1fbd 45dc 6d3b 03b2 5ebc
00000210: b9e6 a4bc 6fac cd3c f868 583d d311 923c
00000220: 6754 6bbb 4a0c 1a3c 3dc8 98bc 01b7 233d
00000230: 8b85 743c 022f 78bd ef82 fabb 3222 f3bd
00000240: 08e8 67bc 4c1a adbc 3bcd 923b 3bca 24bc
00000250: 56f7 673d 9a25 273d 0d6a 233d ed27 c63c
00000260: c4c9 353b 564f 703d 5e44 173d ad5a e6bc
00000270: 863d 36bc 23bb 25bd fc32 08bd d691 c1bd
00000280: bd5d 613d 0cc2 223d 6a2b e63c ee38 3f3c
00000290: 359e 94bd 02b9 003d dd9d 21bc 297b 26bd
000002a0: ac23 0abc d089 3dbd c482 dfbc 388a 353d
000002b0: ba31 15bd 49c3 f33a f920 f13d b1ce ae3d
000002c0: 7698 9abd 7265 c6bc b92e 0fbd 1cd6 d23c
000002d0: 9026 68bd 88c8 90bc 5811 3d3d d34a f13d
000002e0: 310d fdbc 44c5 7cbd 5dca 9bbd b56f f93d
000002f0: ea20 a93c 6732 383c 85e2 afbc ab5b 02bd
00000300: 9fa9 0e3d fb6e c3bc 01c8 2cbd 424f c93c
00000310: 6f23 13bc 14a1 debc 8691 8fbd 617d 333d
00000320: 1446 a33b b640 ae3d 33ac b2bb f72a c23c
00000330: a499 fdbb a9c7 ecbb 4084 3abd 43c9 cfbc
00000340: e898 863d 2ec2 d93b 403a 7ebc 7a29 803d
00000350: 457b e43d b562 553d f0dd 75bc eba4 9f3c
00000360: b948 2d3d 4c7c fcbc bd6b 843c 23f4 853c
00000370: 6cc2 08bd 05ce 75bd a927 c83a d045 6cbd
00000380: 4e73 4a3d 7c30 04bd 48ce a63d 3e3f 71bd
00000390: 91ad f4bd 990b a9bc 12f1 993b 09c5 12be
000003a0: 99eb be3d 786f f0bd 36e5 8bbd ea31 483c
000003b0: 0008 4f3c 9fec a33d 5c3d bc3c 6edc 083e
000003c0: 8935 0bbb 59f5 4fbd 2013 a6bd cbd0 eabd
000003d0: f524 73bc feee d2bd 0ee0 153e d618 6f3d
000003e0: 7801 05bd ae45 acbc 3025 41bd 5fb7 a03d
000003f0: a391 3fbd c3a3 adbd a742 4dbd 25cd 9bbc
-0.099259 0.050527155 -0.024598354 0.012228979 0.042537402 0.050442345 0.027879719 -0.0072305864
0.054221675 -0.042278543 0.008762185 -0.0057051904 0.0136974165 0.040278353 0.0065857023 -0.036840558
0.035135582 -0.09261381 0.11319924 0.044301964 -0.08633656 -0.085635275 -0.054593027 0.019050451
-0.03467217 -0.09412355 -0.06719566 0.031273585 -0.033068415 0.029681629 0.077163 0.041484155
-0.006850746 -0.07006822 -0.03297935 -0.0009806792 0.034159407 -0.08123172 0.06243353 -0.021086032
-0.05836669 -0.046328332 0.03234633 -0.045496363 0.023086602 -0.03701001 -0.10854987 -0.032969575
0.0013876728 0.04912359 0.10034527 0.08158488 0.05150256 0.012002266 -0.07144512 -0.054175936
0.057556983 0.030545171 -0.033219807 0.06471773 -0.0459627 0.070163466 0.16691275 0.06781678
-0.03652654 -0.002397471 -0.08527722 0.04109944 0.021247627 -0.006619002 -0.05582739 -0.00521325
0.02868636 0.039057575 -0.06289726 0.025249518 -0.04323168 0.06740395 -0.017575577 0.06630328
0.0074796667 -0.03349362 -0.038339525 0.036287006 0.086753406 0.01080284 -0.0054747006 0.115404
0.036778808 -0.03080779 -0.0051493347 0.059762824 0.010050839 0.0014858189 0.0279896 -0.036003273
-0.02488429 -0.05300411 0.01853767 -0.11378214 -0.0048331353 -0.009073717 0.0374028 -0.029810492
0.124211386 0.01650257 -0.068146795 -0.037462655 -0.008375897 0.02638254 -0.12673521 0.004065744
0.03966259 0.00039177408 -0.052808966 -0.115547426 -0.011493962 -0.014992604 -0.014086008 -0.007871625
0.05278318 -0.015766451 0.07456253 -0.0343483 -0.024945987 -0.03930526 -0.09552102 -0.068482555
0.016713789 -0.03886065 0.003629462 -0.013592246 -0.020129548 0.025106637 0.05283448 0.017830765
-0.0035908462 0.009402344 -0.018650169 0.039969448 0.014924417 -0.060591705 -0.007645003 -0.118717566
-0.014154442 -0.021130703 0.004480032 -0.010057981 0.056632362 0.040807344 0.03989606 0.02418896
0.002773867 0.05866941 0.036930434 -0.02811941 -0.011123067 -0.04046167 -0.033251747 -0.09451644
0.055021036 0.03973584 0.028096873 0.011671288 -0.07256738 0.031426437 -0.009864298 -0.0406448
-0.008431356 -0.046274006 -0.027284034 0.04432127 -0.036424376 0.0018597628 0.11773867 0.08535517
-0.07548611 -0.024218295 -0.034956668 0.02573686 -0.0566774 -0.017673746 0.04615912 0.1178185
-0.03089008 -0.061711565 -0.07606957 0.121795096 0.020645577 0.011242486 -0.021470318 -0.031825703
0.034829732 -0.02385663 -0.042182926 0.024573926 -0.008980616 -0.027176417 -0.07010178 0.043820743
0.004982719 0.085084364 -0.0054526567 0.023702128 -0.0077392627 -0.00722595 -0.04553628 -0.025364524
0.06572133 0.0066454625 -0.015516818 0.06257911 0.11156324 0.052096087 -0.015006527 0.019487819
0.04230568 -0.030820988 0.016164655 0.016351765 -0.03338854 -0.06001093 0.0015270609 -0.057683766
0.04942637 -0.0322728 0.08144814 -0.058898203 -0.11947168 -0.020635413 0.0046979273 -0.14332975
0.093222804 -0.11740011 -0.06830828 0.012218932 0.012636185 0.08004116 0.022978477 0.13365337
-0.0021241626 -0.05077109 -0.081091166 -0.11465605 -0.014840354 -0.102994904 0.14636251 0.058373295
-0.032472104 -0.02102932 -0.047154605 0.07847475 -0.04676975 -0.08478501 -0.050112393 -0.019018719

blocks.0.attention.W_o.weight f4 [64, 64]
00000000: 678c cc3c 5da9 363d c79e c2bd d0bf 8c3a
00000010: 0218 9dbd 2be1 b03d 529b 24bd 2f50 07bb
00000020: a115 f7bc 7f96 18bd 74bb 583b 86cc e03d
00000030: 9eb3 e5bc 595d 9dbd 9dd7 89bc b9c2 7bbc
00000040: e30e ad3c 04dd 203d de08 a4bd 5e4e f5bc
00000050: 3e8d 3dbd 2f5a 4cbc 0d3d 93bd 48f2 f93c
00000060: dd20 023d 6ea0 7f3d 9f1e 3f3d 8599 f43d
00000070: 20fd 5bbd b26c de3a b909 163d dba5 013d
00000080: 18e7 f4bd 8f72 4cbb 01c1 123d 0379 323d
00000090: 1b13 07bd d2b8 eb3c 4d3c 24bd 143e 573a
000000a0: cadb 17bc d41a bbbc f23c 8fbd ac0d 993d
000000b0: 9071 1fbc 05a0 3dbd 7f83 0c3c eeaf 93bc
000000c0: cf81 c63b df7b b3bd 288f 863c 7ada 40bc
000000d0: f8b3 50bb e0bf 903d 6290 8d3c 7b35 a1bc
000000e0: 907b 6c39 06c8 3cbd e4d3 adbb f0da d13b
000000f0: 0e4c d8bc d896 1fbd 3862 c03d e33f 143d
00000100: 57d1 603d d987 4fbb 431d 0fbc 885d a3bc
00000110: 075f 44bc 675f 50bd 00a0 263d 2647 7c3b
00000120: 0eda e6bc fc2d cabb 669c 5bbc fe06 16bd
00000130: d678 4a3c 4720 583d 18c4 9a3d 4a3a 1ebd
00000140: e509 d33c e31f a23c c4c9 7b3d c37b cc3b
00000150: f607 0dbd 5d65 853c 78ee 27bd ca39 84bd
00000160: d0fc d1bc fd47 e23c c5db c2bc def0 30bd
00000170: 78e3 723c f434 6fbd ba49 413c 5f0f 093d
00000180: 5f37 063d 09cf 603d 6460 6b3c 414c 41bd
00000190: 96e6 933b f27f 92bc f2ae 8f3d 7631 adbc
000001a0: 88ba f33a 6671 b33b a005 b23c a5ac 03bd
000001b0: 75e8 433d 81af 05bd c59b 2fbd d865 b2bd
000001c0: 47f0 9cbb 5d30 42bc 6f33 0bbd 3b9f f4bc
000001d0: baf8 81bd 0a05 6fbd ee5d 28bd 7b1c 263c
000001e0: 98bf 363d 0020 1b3d 956b 03bb 3aca 033c
000001f0: a7b0 c03a 9049 09bc ff4e 053d 07e7 60bc
00000200: 3522 683d 0e06 92bc c534 0ebd bacf b3bd
00000210: f21c 96bc 7483 2ebd f3b2 213d f1ae ce3d
00000220: 4104 603c 77c5 5ebd 7886 a83c 94f9 51bd
00000230: 683a 28bd c28d 553d 31b2 5abc dc90 82bd
00000240: 695b a7bc 40e5 bdbc 45ee 013e d2f6 ec3c
00000250: 28fc 04bd 99c1 d33b 7a3d b8ba 6fc5 01bd
00000260: 147f 82bb d0e1 bf3d 9f98 39bb 9ccb ca3d
00000270: d4d7 37bd 20ff 18bd 564e adbb 94d0 2ebd
00000280: 0ede 2cba 6711 973d 1bf5 043e 91cd f0bb
00000290: ebe5 f2bc 61b8 ecbd c639 61bd 432e a8bd
000002a0: e6a3 873d 1705 91bc 6e41 02bd a13c 293d
000002b0: 6c76 60ba fb75 16bd adb9 d5bc 78d3 23bd
000002c0: 6911 81bb 005d 13bb 6b46 bdbd 11ca f4bc
000002d0: f5b4 943c 777d 0ebd f1dd f83c 8cea 86bd
000002e0: 1cf0 6b3b 17cb 2fbd 3170 afbd f600 efbc
000002f0: 2c66 2a3d 6eb3 6e3d 04ca 3e3c 8f89 b5bc
00000300: 89ce 413b e239 0bbc 6df8 8d3c 68ab e33c
00000310: 1c59 763d c48e 9ebb 9528 a33d a72d 1dbc
00000320: a990 183b 690d 133d 7a56 cebd 6e80 59bd
00000330: 1bbc 86b9 1870 cd3d b4cf 843d 9fe9 463d
00000340: d8dd 993b 681e 1cbd f57d 58bd f49a b3bc
00000350: bf2a bc3b 721b 68bd 1efa 523c 7b6e b4bc
00000360: 4207 343d f58d 23bc ba3e c03c 3b76 74bd
00000370: bcdf a6bb 5a10 373d 1b13 aa3d b615 a93d
00000380: edac 613d 0819 41bd 40ae 4ebd 55cf a6bc
00000390: ebe5 7d3c 3970 c63c 303a 6b3d 10cc 883b
000003a0: ed10 bc3d eb4d 2b3d 0eba 83bb 6f33 ccbd
000003b0: deea c6bc 3a54 933c f5e4 1ebd 2b5a 89bd
000003c0: a861 05be 88a4 a53d df6d e8bb 281a abbd
000003d0: 67f8 a5bc 57ac 363d 3dbe 46bc 7b51 e43c
000003e0: 37e1 083e a77c 56bd 474b a03c 4d03 a7bc
000003f0: d365 c1bc a2e3 0cbd bb1f 9d3c ffa7 d0bc
0.024969293 0.04459511 -0.095029406 0.0010738317 -0.07670595 0.086366974 -0.040187187 -0.0020647158
-0.03016168 -0.0372529 0.0033070715 0.1097651 -0.02803975 -0.0768382 -0.016826445 -0.01536625
0.021125263 0.039273277 -0.08009504 -0.029944595 -0.046277277 -0.012472673 -0.07189379 0.030511037
0.031769622 0.062408857 0.046660062 0.11943344 -0.053708196 0.001696965 0.036630366 0.031652313
-0.1195814 -0.0031196212 0.035828594 0.043572437 -0.032977205 0.028774653 -0.04009657 0.00082108495
-0.00926871 -0.022839941 -0.06994046 0.07473311 -0.009731665 -0.046295185 0.008576273 -0.018028226
0.006057955 -0.08763861 0.016425684 -0.011770839 -0.003184555 0.07067847 0.017280761 -0.019678822
0.00022552744 -0.046089195 -0.0053048003 0.006404273 -0.026403453 -0.038962215 0.09393734 0.03619374
0.054887142 -0.0031666665 -0.008735004 -0.01994206 -0.011985547 -0.050872233 0.04067993 0.0038494556
-0.028180148 -0.0061700325 -0.0134039875 -0.036627762 0.012357911 0.052765157 0.07556933 -0.038629808
0.025761554 0.019790595 0.061471716 0.0062403395 -0.03443142 0.016283685 -0.040998906 -0.06456335
-0.025633246 0.027622217 -0.023786435 -0.04319846 0.014824741 -0.05840011 0.011797363 0.033461925
0.03276765 0.054884944 0.014366243 -0.047191862 0.004513572 -0.017883275 0.0701579 -0.021141749
0.0018595019 0.0054761646 0.021731198 -0.03214707 0.04782911 -0.032638077 -0.042873163 -0.087108314
-0.0047893855 -0.011852351 -0.033984598 -0.029861083 -0.06346269 -0.058354415 -0.041105203 0.010138626
0.04461631 0.037872314 -0.0020053138 0.00804382 0.0014701084 -0.008379355 0.03254604 -0.013726956
0.056673247 -0.017825153 -0.034718294 -0.08779855 -0.01832435 -0.042605832 0.0394773 0.10091961
0.013672889 -0.054387536 0.020571932 -0.051263407 -0.041071326 0.052137144 -0.013348148 -0.06375286
-0.02042933 -0.023180604 0.12688549 0.028926287 -0.032467037 0.0064622876 -0.0014056407 -0.031682428
-0.003982434 0.09369242 -0.002831973 0.09902117 -0.044883564 -0.03735268 -0.0052888794 -0.042679384
-0.0006594368 0.07376366 0.12984125 -0.007348724 -0.029650649 -0.11558605 -0.054986738 -0.08211949
0.06623058 -0.017702622 -0.03180068 0.041317586 -0.0008562568 -0.03673361 -0.026089514 -0.039996594
-0.003938843 -0.0022485852 -0.09241947 -0.029881509 0.018152693 -0.03478762 0.030379267 -0.06587705
0.003600127 -0.04291829 -0.08566321 -0.029175263 0.041601345 0.058276586 0.011644844 -0.02216032
0.0029572567 -0.008497687 0.017330373 0.027791694 0.060143575 -0.0048387963 0.07966725 -0.009593404
0.0023279584 0.03590146 -0.10075088 -0.053100996 -0.0002569862 0.10031146 0.06484929 0.048562642
0.0046956353 -0.038114935 -0.052854497 -0.021924473 0.0057424004 -0.0566668 0.012877015 -0.022025337
0.043952234 -0.009982576 0.02346741 -0.059683066 -0.005092589 0.04469333 0.08304425 0.08256094
0.055096556 -0.047143012 -0.050459146 -0.020362535 0.015496711 0.024223434 0.05742854 0.004174717
0.09182916 0.041822355 -0.004019982 -0.09970748 -0.024281915 0.017984498 -0.03879257 -0.06706651
-0.13025534 0.080880225 -0.007093176 -0.08354598 -0.020260049 0.04459795 -0.012130317 0.027870884
0.13367163 -0.05236497 0.019567145 -0.020387316 -0.023608124 -0.034396775 0.01918017 -0.025470732

blocks.0.feed_forward.fc1.weight f4 [256, 64]
00000000: 32b0 8dbd afc1 fe3c d3e4 bfbc b5a2 93bb
00000010: 4d33 293d 4c9f dc3c c7a6 8fbd 31f8 373c
00000020: b673 8c3c 5bfa 99bc 3d7b 163d 8526 823c
00000030: 660f 8bbc 040b 883b 496c 08bd f72e f33b
00000040: cf40 57bc 94b7 4cbc 25f7 113d 9b14 2a3d
00000050: 7c57 d43d b07a ff3c 92e1 173d d088 13bc
00000060: e892 97bc 0184 a43c f52d 9e3b 9a88 333d
00000070: 7bb8 99bc 1a4f 69bd ee41 4dbd 64c5 8339
00000080: b5d0 6e3b fdab d7bc 3910 24bd 913c c0bb
00000090: 0821 783b 8d26 2ebd dd60 2bbd 0f93 4abd
000000a0: d8ad b2bc 0b33 dcbc b5da 3c3d 2733 0bbd
000000b0: 4e10 4c3d f789 273d 4549 163d 46a9 c13b
000000c0: 5c8f 0b3c bb78 c9bc 0520 6dbd 6460 b4bb
000000d0: 9e9f b23c f434 003d 793b 95bb 2067 193d
000000e0: 10ae 8fbc 1bc6 0a3d 4986 0cbc 3eb7 00bc
000000f0: 8e0c d1bc 54a0 bf3b d43e 3c3c 8e6d 193c
00000100: 7d24 8f3a 2e94 0cbd 95c0 883d f607 62bd
00000110: 9240 efba 2837 da3c be8d aa3d a0df 053d
00000120: 69b8 de3d f971 fabd c1e7 d23a 1b6c 423b
00000130: cca5 873c b95a 933d 18a8 613d d625 613d
00000140: 92a3 193d c68d 79bd 7aa6 423d 5a76 0e3c
00000150: d728 e1bb 8fe4 033e 4846 123d 1449 54bd
00000160: 2038 9fbc 7c7d d9bc 8dd5 813d e6a7 4dbd
00000170: 7636 34bd f65a 96bc c853 00bd 9ca2 cc3c
00000180: deef b7bd 6c77 3cbd 63a4 afbc 1ca7 8a3d
00000190: 5708 2fbd 7576 96bd bba1 a7bc acb7 52bd
000001a0: 2648 dc3c 0db7 1abd c9b3 84bb c2a0 b63c
000001b0: 0071 2f3b fe7c 813d fd84 5ebd c4df 84bd
000001c0: ab14 733d 3b13 043d db97 7a3b 35fe 97bb
000001d0: 96a1 913c 7d91 0e3d a25a cd3c a2f5 843d
000001e0: 63a0 09bc 21a6 a4bd 6d2d 863d a78a 21bd
000001f0: ad83 93bc bc55 e33c c058 3e3c fa99 01bd
00000200: 26e2 afbc 265d 2c3c 0da9 2b3d 0c30 7cbc
00000210: cea9 73bc 8b5b 83bd eb37 2b3b 188a 113d
00000220: 73e5 6f3c 86c7 e8bc 236c f43b f57f 9f3c
00000230: acc1 593d cf53 ff3b be9f 1c3d 8f60 e0ba
00000240: f988 72bd 71cf 273c 1e59 6ebd fcc6 7bbb
00000250: 993d 0a3c d648 87bb feea 853c 3f27 a33c
00000260: 3050 4cbc 1ebb 313d cb67 4d3d dc53 063d
00000270: 42ad 423d a8b1 80bc 6add fcbc 6e8c 073d
00000280: 1b15 ac3c a4e0 1a3c 1fa5 603c 6a2c 0f3d
00000290: 2f17 bbbd 3781 543d 1d12 df3c 1090 b43c
000002a0: ceca 4a3d 86ea 3bbc 5df9 ef3b dd17 3dbd
000002b0: d925 dabc 2cac 873c 63a0 77bd 2bac 313c
000002c0: 15bc b83b 1e6d 1e3d d2bc 14bd 27fa b1bd
000002d0: 2bba 65bc fc03 213d 6290 3ebc 9ec5 2b3c
000002e0: 151d 21bd 802b 6fbc 72c8 64bc 48b3 9f3c
000002f0: 1704 cc3c 7473 4a3d 198f 5c3c f706 ac3c
00000300: 8360 5d3d 3a4e 503d 3a4f 9cbd 18c6 883d
00000310: 1461 0a3d 14f3 2bbc bfee 0abe 0730 62bc
00000320: ff23 3638 2ce9 a4bd 51d8 ca3d 7465 babb
00000330: 3477 c2bc eefe 0bbd 3cbe f4bc 5aec e2bb
00000340: efe5 123b ac23 61bd 10cd 9bbc edc6 b23c
00000350: 0849 9abc a90c 1fbd beae 4bbd 14d7 863d
00000360: 55c4 c9bb b382 4cbd 7e0e 873c feb4 f83c
00000370: fa7f babd af4c a5bd 8e47 963c 7247 b43d
00000380: 0855 313d 3396 25bd 6e78 e5ba c0aa f6bb
00000390: a3f4 3bbb d93d 66bd 33b4 b23c 2e1c 90bc
000003a0: 5a93 88bc 0875 c2bd bb66 6abc 7fab 023d
000003b0: 30d3 7a3d d51c 023d d068 00bc adea 6fbd
000003c0: b32f 0d3d 663c 5b3d 2aa3 eabb 893d cfbc
000003d0: 76e4 42bd 14c0 b53d bc53 013e 2998 e0bc
000003e0: fb48 0a3d a682 403d ece8 cebd 755d af3d
000003f0: 6f30 cdbb 005f c6bc 45e7 efbb c0ab f63a
-0.06918372 0.031098215 -0.023424542 -0.00450548 0.04130869 0.026931427 -0.07014232 0.011228607
0.017145019 -0.018796137 0.036738623 0.015887508 -0.016975116 0.004151704 -0.033306394 0.00742137
-0.01313801 -0.01249494 0.035636086 0.041523557 0.10368249 0.031186432 0.037080355 -0.009004787
-0.018502668 0.020082476 0.004827256 0.043831445 -0.018764725 -0.056960203 -0.050111704 0.00025133335
0.0036440317 -0.026327128 -0.040054534 -0.005866595 0.0037861485 -0.042517234 -0.041840423 -0.049456652
-0.02181141 -0.026879808 0.046107013 -0.03398433 0.049820237 0.040903058 0.03669097 0.0059100715
0.008518066 -0.024593702 -0.057891864 -0.0055046547 0.021804627 0.0313005 -0.004554209 0.037451863
-0.017539054 0.033880334 -0.008576938 -0.007856188 -0.025518682 0.00584797 0.011489589 0.009364499
0.0010920909 -0.034321003 0.06677357 -0.055183373 -0.0018253496 0.026637629 0.083278164 0.03268397
0.10875017 -0.1222877 0.0016090797 0.0029666487 0.01655855 0.07195038 0.055091947 0.054967724
0.03750951 -0.06092622 0.047522046 0.008695209 -0.0068713236 0.12880157 0.035711557 -0.051827505
-0.019435942 -0.026549093 0.0633956 -0.05020895 -0.04399725 -0.01835392 -0.0313299 0.024979882
-0.08981298 -0.046012327 -0.02144069 0.06770155 -0.042732563 -0.07346813 -0.020462861 -0.051444694
0.026889872 -0.037772227 -0.0040497524 0.022293452 0.0026770234 0.063226685 -0.054326046 -0.064879924
0.059345882 0.032244902 0.0038237486 -0.004638458 0.017777245 0.034806717 0.025067631 0.06492163
-0.008400056 -0.08039499 0.06551633 -0.03943887 -0.018007124 0.027750842 0.011617839 -0.031640984
-0.02147014 0.010520255 0.041909266 -0.015392315 -0.014872028 -0.06413945 0.002612586 0.035532087
0.014642107 -0.028415453 0.00745918 0.019470194 0.053163216 0.007791973 0.03823828 -0.001711862
-0.05921266 0.010242329 -0.058190458 -0.0038418164 0.008437538 -0.004128556 0.016347405 0.019916175
-0.01247029 0.04339134 0.050147813 0.03279482 0.047528513 -0.015709713 -0.030867297 0.03309291
0.021006158 0.009452973 0.013711243 0.034954466 -0.09135281 0.05188104 0.027230317 0.02204135
0.049509816 -0.011469489 0.0073234276 -0.046165336 -0.026629375 0.01656159 -0.06045569 0.010844271
0.0056376555 0.03867828 -0.036312886 -0.08690291 -0.014021437 0.03931044 -0.011631103 0.010484127
-0.039334375 -0.014597774 -0.0139638055 0.019494668 0.024904294 0.04942651 0.0134618515 0.020999415
0.05404712 0.050855853 -0.07632299 0.066784084 0.033783987 -0.010494966 -0.13567637 -0.013805396
4.3425705e-05 -0.080522865 0.0990454 -0.0056883637 -0.023738481 -0.034178667 -0.029875867 -0.006925148
0.0022414883 -0.05496566 -0.01901868 0.02182337 -0.018833652 -0.038830433 -0.049727194 0.06583992
-0.006157438 -0.049929332 0.016486403 0.030359741 -0.09106441 -0.08071267 0.018344667 0.088026896
0.043293983 -0.040426444 -0.0017507204 -0.007527679 -0.002867975 -0.056211326 0.021814441 -0.017591562
-0.016671825 -0.09494978 -0.014306719 0.031901833 0.06123656 0.031765778 -0.007837489 -0.058573414
0.034469318 0.053524397 -0.007160564 -0.025297897 -0.04758116 0.088745266 0.12629598 -0.027416306
0.033761006 0.046999596 -0.1010302 0.085627474 -0.0062618772 -0.024215221 -0.0073212706 0.0018819496
